py main2.py --no_batchnorm --no_pruning
Random Seed:  997
Real Images loaded
CarbonTracker: The following components were found: GPU with device(s) NVIDIA GeForce RTX 3060 Laptop GPU.
Generator(
  (main): Sequential(
    (0): ConvTranspose2d(100, 512, kernel_size=(4, 4), stride=(1, 1), bias=False)
    (1): ReLU(inplace=True)
    (2): ConvTranspose2d(512, 256, kernel_size=(4, 4), stride=(2, 2), padding=(1, 1), bias=False)
    (3): ReLU(inplace=True)
    (4): ConvTranspose2d(256, 128, kernel_size=(4, 4), stride=(2, 2), padding=(1, 1), bias=False)
    (5): ReLU(inplace=True)
    (6): ConvTranspose2d(128, 64, kernel_size=(4, 4), stride=(2, 2), padding=(1, 1), bias=False)
    (7): ReLU(inplace=True)
    (8): ConvTranspose2d(64, 3, kernel_size=(4, 4), stride=(2, 2), padding=(1, 1), bias=False)
    (9): Tanh()
  )
)
Discriminator(
  (main): Sequential(
    (0): Conv2d(3, 64, kernel_size=(4, 4), stride=(2, 2), padding=(1, 1), bias=False)
    (1): LeakyReLU(negative_slope=0.2, inplace=True)
    (2): Conv2d(64, 128, kernel_size=(4, 4), stride=(2, 2), padding=(1, 1), bias=False)
    (3): LeakyReLU(negative_slope=0.2, inplace=True)
    (4): Conv2d(128, 256, kernel_size=(4, 4), stride=(2, 2), padding=(1, 1), bias=False)
    (5): LeakyReLU(negative_slope=0.2, inplace=True)
    (6): Conv2d(256, 512, kernel_size=(4, 4), stride=(2, 2), padding=(1, 1), bias=False)
    (7): LeakyReLU(negative_slope=0.2, inplace=True)
    (8): Conv2d(512, 1, kernel_size=(4, 4), stride=(1, 1), bias=False)
    (9): Sigmoid()
  )
)
Starting Training Loop...
[0/5][50/1583]  Processed [50/202624]   Loss_D: 0.6897  Loss_G: 0.7039  D(x): 0.9981    D(G(z)): 0.4973 / 0.4946
[0/5][100/1583] Processed [100/202624]  Loss_D: 0.7171  Loss_G: 0.6963  D(x): 0.9865    D(G(z)): 0.5041 / 0.4984
[0/5][150/1583] Processed [150/202624]  Loss_D: 0.8596  Loss_G: 0.6162  D(x): 0.9773    D(G(z)): 0.5658 / 0.5400
…
