…
        0.045019 km travelled by car
CarbonTracker: 
Predicted consumption for 4 epoch(s):
        Time:   2:24:42
        Energy: 0.0479835 kWh
        CO2eq:  4.8395105 g
        This is equivalent to:
        0.045019 km travelled by car
CarbonTracker: Finished monitoring.
DONE TRAINING
total time spent training:144.7148549715678 minutes.
10 images saved in outputs/





PS C:\Users\kenmi\Desktop\skol\P2\Thesis\dcgan> py main.py --no_batchnorm --no_pruning
Random Seed:  999
CarbonTracker: The following components were found: GPU with device(s) NVIDIA GeForce RTX 3060 Laptop GPU.
Generator(
  (main): Sequential(
    (0): ConvTranspose2d(100, 512, kernel_size=(4, 4), stride=(1, 1), bias=False)
    (1): ReLU(inplace=True)
    (2): ConvTranspose2d(512, 256, kernel_size=(4, 4), stride=(2, 2), padding=(1, 1), bias=False)
    (3): ReLU(inplace=True)
    (4): ConvTranspose2d(256, 128, kernel_size=(4, 4), stride=(2, 2), padding=(1, 1), bias=False)
    (5): ReLU(inplace=True)
    (6): ConvTranspose2d(128, 64, kernel_size=(4, 4), stride=(2, 2), padding=(1, 1), bias=False)
    (7): ReLU(inplace=True)
    (8): ConvTranspose2d(64, 3, kernel_size=(4, 4), stride=(2, 2), padding=(1, 1), bias=False)
    (9): Tanh()
  )
)
Discriminator(
  (main): Sequential(
    (0): Conv2d(3, 64, kernel_size=(4, 4), stride=(2, 2), padding=(1, 1), bias=False)
    (1): LeakyReLU(negative_slope=0.2, inplace=True)
    (2): Conv2d(64, 128, kernel_size=(4, 4), stride=(2, 2), padding=(1, 1), bias=False)
    (3): LeakyReLU(negative_slope=0.2, inplace=True)
    (4): Conv2d(128, 256, kernel_size=(4, 4), stride=(2, 2), padding=(1, 1), bias=False)
    (5): LeakyReLU(negative_slope=0.2, inplace=True)
    (6): Conv2d(256, 512, kernel_size=(4, 4), stride=(2, 2), padding=(1, 1), bias=False)
    (7): LeakyReLU(negative_slope=0.2, inplace=True)
    (8): Conv2d(512, 1, kernel_size=(4, 4), stride=(1, 1), bias=False)
    (9): Sigmoid()
  )
)
Starting Training Loop...
[0/4][50/1583]  Processed [50/202624]   Loss_D: 0.7931  Loss_G: 0.6387  D(x): 0.9083    D(G(z)): 0.4868 / 0.5280
[0/4][100/1583] Processed [100/202624]  Loss_D: 0.7248  Loss_G: 0.6733  D(x): 0.9938    D(G(z)): 0.5124 / 0.5100
2023-10-31 10:03:48.431596: I tensorflow/core/platform/cpu_feature_guard.cc:182] This TensorFlow binary is optimized to use available CPU instructions in performance-critical operations.
…
