…
[1/4][467/1583] Processed [2050/202624]         Loss_D: 0.9000  Loss_G: 0.6536  D(x): 0.9350    D(G(z)): 0.5615 / 0.5216
aaaaa
CarbonTracker: 
Actual consumption for 1 epoch(s):
        Time:   0:58:51
        Energy: 0.0218294 kWh
        CO2eq:  2.2016618 g
        This is equivalent to:
        0.020481 km travelled by car
CarbonTracker: Finished monitoring.
DONE TRAINING
total time spent training:58.86713663339615 minutes.





















PS C:\Users\kenmi\Desktop\skol\P2\Thesis\dcgan> py main.py --no_batchnorm --pruning
Random Seed:  999
CarbonTracker: The following components were found: GPU with device(s) NVIDIA GeForce RTX 3060 Laptop GPU.
Generator(
  (main): Sequential(
    (0): ConvTranspose2d(100, 512, kernel_size=(4, 4), stride=(1, 1), bias=False)
    (1): ReLU(inplace=True)
    (2): ConvTranspose2d(512, 256, kernel_size=(4, 4), stride=(2, 2), padding=(1, 1), bias=False)
    (3): ReLU(inplace=True)
    (4): ConvTranspose2d(256, 128, kernel_size=(4, 4), stride=(2, 2), padding=(1, 1), bias=False)
    (5): ReLU(inplace=True)
    (6): ConvTranspose2d(128, 64, kernel_size=(4, 4), stride=(2, 2), padding=(1, 1), bias=False)
    (7): ReLU(inplace=True)
    (8): ConvTranspose2d(64, 3, kernel_size=(4, 4), stride=(2, 2), padding=(1, 1), bias=False)
    (9): Tanh()
  )
)
Discriminator(
  (main): Sequential(
    (0): Conv2d(3, 64, kernel_size=(4, 4), stride=(2, 2), padding=(1, 1), bias=False)
    (1): LeakyReLU(negative_slope=0.2, inplace=True)
    (2): Conv2d(64, 128, kernel_size=(4, 4), stride=(2, 2), padding=(1, 1), bias=False)
    (3): LeakyReLU(negative_slope=0.2, inplace=True)
    (4): Conv2d(128, 256, kernel_size=(4, 4), stride=(2, 2), padding=(1, 1), bias=False)
    (5): LeakyReLU(negative_slope=0.2, inplace=True)
    (6): Conv2d(256, 512, kernel_size=(4, 4), stride=(2, 2), padding=(1, 1), bias=False)
    (7): LeakyReLU(negative_slope=0.2, inplace=True)
    (8): Conv2d(512, 1, kernel_size=(4, 4), stride=(1, 1), bias=False)
    (9): Sigmoid()
  )
)
Starting Training Loop...
[0/6][50/1583]  Processed [50/202624]   Loss_D: 0.7931  Loss_G: 0.6387  D(x): 0.9083    D(G(z)): 0.4868 / 0.5280
[0/6][100/1583] Processed [100/202624]  Loss_D: 0.7248  Loss_G: 0.6733  D(x): 0.9938    D(G(z)): 0.5124 / 0.5100
2023-11-02 01:14:01.156113: I tensorflow/core/platform/cpu_feature_guard.cc:182] This TensorFlow binary is optimized to use available CPU instructions in performance-critical operations.
…
CarbonTracker: 
Actual consumption for 6 epoch(s):
        Time:   11:01:12
        Energy: 0.2599471 kWh
        CO2eq:  26.2176980 g
        This is equivalent to:
        0.243886 km travelled by car
CarbonTracker: 
Predicted consumption for 6 epoch(s):
        Time:   11:01:12
        Energy: 0.2599471 kWh
        CO2eq:  26.2176980 g
        This is equivalent to:
        0.243886 km travelled by car
CarbonTracker: Finished monitoring.
DONE TRAINING
total time spent training:661.2256491104762 minutes.
19 images saved in outputs/










BOTH 



  )
)
Discriminator(
  (main): Sequential(
    (0): Conv2d(3, 64, kernel_size=(4, 4), stride=(2, 2), padding=(1, 1), bias=False)
    (1): LeakyReLU(negative_slope=0.2, inplace=True)
    (2): Conv2d(64, 128, kernel_size=(4, 4), stride=(2, 2), padding=(1, 1), bias=False)
    (3): LeakyReLU(negative_slope=0.2, inplace=True)
    (4): Conv2d(128, 256, kernel_size=(4, 4), stride=(2, 2), padding=(1, 1), bias=False)
    (5): LeakyReLU(negative_slope=0.2, inplace=True)
    (6): Conv2d(256, 512, kernel_size=(4, 4), stride=(2, 2), padding=(1, 1), bias=False)
    (7): LeakyReLU(negative_slope=0.2, inplace=True)
    (8): Conv2d(512, 1, kernel_size=(4, 4), stride=(1, 1), bias=False)
    (9): Sigmoid()
  )
)
Starting Training Loop...
[0/6][50/1583]  Processed [50/202624]   Loss_D: 0.7931  Loss_G: 0.6387  D(x): 0.9083    D(G(z)): 0.4868 / 0.5280
[0/6][100/1583] Processed [100/202624]  Loss_D: 0.7248  Loss_G: 0.6733  D(x): 0.9938    D(G(z)): 0.5124 / 0.5100
[0/6][150/1583] Processed [150/202624]  Loss_D: 0.7070  Loss_G: 0.8031  D(x): 0.9545    D(G(z)): 0.4806 / 0.4480
…
